GCN-main/model.pth (torch, 93663 bytes, 4 tensors)

gcn1.weights f4 [1433, 16]
00000000: ac13 1cbd 1b5b 43be 1d39 01be 1192 4fbe
00000010: 4a9d f03d be4d 9f3d 4c39 763c 7e7e 2a3e
00000020: a7ff ad3d 805b 38be 6557 c3bc 96b3 e73d
00000030: 7f1a f1bd 5703 2bbe 7569 fc3d 7845 abbc
00000040: 6e62 8a3e 3300 163e 8d23 1c3d a828 99bc
00000050: 04c6 cabd 973d e83d 0819 69bd 3352 69be
00000060: 5b9c b0bd 6e84 f93d d311 573e d6c8 903d
00000070: 6011 71bd 3795 b1bd 46a5 75be 62ba 4ebd
00000080: cc1c 8cbe 1158 323e 61bc f23d 1e8e 443b
00000090: 12cf c8be 5c8c 7dbe 7f64 823e ab65 353f
000000a0: cd61 f83e 6f7d 0abf 5b3a b9bc ad60 293e
000000b0: eefd f13d 59a9 713e 60ef 16be 5877 09be
000000c0: 9873 e73e 361d ec3d a2fa 193f ba5c 2dbe
000000d0: 48c0 88bd 60ec b73e 576b 8cbe 7ca7 bfbe
000000e0: 0b9f 813e 9dc3 e53e 98c2 b93e 5b7c d6be
000000f0: 11d8 903e 8b7f 84be aea4 17be c12e c03e
00000100: 53bd 553f e631 85be a206 66bf 6e37 73bf
00000110: c1d1 47bf ec2e 4abf f617 70bf c0e4 923f
00000120: 5804 8f3f 09fe 82bf ac00 883f f3b7 973f
00000130: 5fc6 ef3e 8270 073c dfc6 33be d4c3 63bf
00000140: 8aa2 9f3d 8c31 e0bc e09b 3abd 6a29 613d
00000150: c1f1 6c3d f5c9 65bd 252c 67bd 6357 ccbd
00000160: 2f17 98bd de4f b73d 99c3 adbc 17c8 6fbb
00000170: de02 393d 35bc 983d 82e5 273d 1927 fbbb
00000180: 29f9 37be beb3 d73c 3aa1 08be abe1 4f3e
00000190: 9ccd 143d 62cf ca3d f194 743d 1dc4 f0bd
000001a0: 13ec 1abe b9b4 143e 986e 313d 478e f73d
000001b0: aaf0 f1bd 33c9 c4bc 159a 8bbc 64a8 c0bd
000001c0: 2169 4c3d a3f3 3c3e 94ae d63d b6c7 a1bd
000001d0: 2b93 01be 6bd9 cf3e c9b8 eebd 1b02 89be
000001e0: 43fe 783c 8215 a53e 8526 923e 7298 d2bc
000001f0: 4f45 c93b 64bc b0be 7b90 4bbe c568 643d
00000200: a365 a63e 1e6b 6bbe 4fe0 00bf 1284 c83c
00000210: 2baa 733e 9662 d2be 98e3 d5be 2a54 a8bd
00000220: 4e61 89be 50f8 133e dc1f bebc c30e ae3d
00000230: bb60 9c3e a90b a13e 5c12 993e 485a 14be
00000240: 63f9 eb3c 1cf3 50bc 0619 b7bc 5e82 273d
00000250: da2d 093c 67d7 10bd 14b5 92bc 65fd 293c
00000260: cc09 e73b 8adf 243c 51da 00bc 1de9 34bc
00000270: 522e 063d 3338 513d 6859 703c 20f3 96ba
00000280: 0947 493e b21f c1bd deb0 09be 4703 c93d
00000290: 1617 cb3d 4364 65bd 1442 42be f5a0 78be
000002a0: 59e5 30be 49be 4d3e 0930 9ebc 2d48 84bd
000002b0: 1968 e53d 7cfd b93d 1c52 ac3d e5b1 e43c
000002c0: 2bcc 2fbd 8208 86bd 2e4d c2bb 2b11 acbd
000002d0: 3206 3c3d 0827 1c3d 6c41 e13a 6f09 cb3d
000002e0: 7dcf d73d ab16 61bd b76e 3d3b 3897 3d3d
000002f0: 3af9 04bd 7cb0 a8bd 9240 4d3d 6bde 093b
00000300: 9bea 153d ba7d a13d 329f ebbd f4b2 633d
00000310: 0c40 8dbb 513b 85bd 3439 293e 38eb 3d3d
00000320: 66f8 4abe f3ab e7bd 35b1 5d3d 40d3 133e
00000330: ddbe 2cbe 3dee 183e 5eea c1bc 31ab e7bd
00000340: cac4 1c3e c11f 2e3d 00ad ccb7 84fb 7b3d
00000350: aabe 8c3d bd46 6b3d 62be 0dbe 7d18 8ebe
00000360: 665c 14be bc2c 583e 3052 333c 97af c7bd
00000370: 362e e23d 9136 a63c c764 133d 5c83 3c3d
00000380: 4c0d 2cbd 1693 9abc df26 e73d 7fba 2abd
00000390: b575 c3bb a30b 883d 8c46 6e3c 8813 8f3c
000003a0: 80f7 323d 60ef 50b9 0a5c bebb 58a4 25bd
000003b0: 6cb9 b4bc 7865 89bd 5c42 10bb 48ed 863d
000003c0: d323 47bd 5c5f b73c adb1 0b3d 30df b8ba
000003d0: d1eb 15bc 102a b7bc 77bb ea3c e83c 1a3d
000003e0: b8a8 983c 9e28 1dbc cce7 73bc 4617 6ebc
000003f0: 46e9 ffbb bc07 553c 3604 ec3a d45c 1e3c
-0.038104698 -0.19077723 -0.12619443 -0.20270564 0.117487505 0.077785 0.015028309 0.16649815
0.084960274 -0.18003654 -0.023845384 0.1131355 -0.11772632 -0.16700493 0.12324802 -0.020907149
0.2702822 0.14648513 0.03811984 -0.018696144 -0.0990105 0.11339872 -0.056908637 -0.22785263
-0.086235724 0.12183462 0.21002893 0.070695564 -0.05885446 -0.086710386 -0.23988828 -0.050470717
-0.2736572 0.17416407 0.11852337 0.0029991935 -0.39220482 -0.24760574 0.25467297 0.7085826
0.48512116 -0.54097646 -0.022610834 0.16540785 0.11816011 0.23599757 -0.14739752 -0.13424432
0.4520538 0.11529009 0.6014806 -0.16929904 -0.066773 0.35922527 -0.27425644 -0.37432468
0.25316653 0.44875804 0.36281276 -0.4189175 0.28289846 -0.25878558 -0.14808914 0.3753567
0.8349201 -0.26014632 -0.8985387 -0.95006454 -0.78054434 -0.7897785 -0.9378656 1.1476059
1.1173201 -1.0233775 1.0625205 1.1853012 0.46831033 0.00826657 -0.17556332 -0.88970685
0.07794674 -0.027367376 -0.04555881 0.054971136 0.057847742 -0.056100804 -0.056438584 -0.09977605
-0.07426297 0.0895078 -0.021211432 -0.0036587769 0.04516875 0.07457773 0.04099036 -0.007664573
-0.17966141 0.026330825 -0.13342753 0.20300929 0.036328897 0.099028364 0.059712354 -0.11756156
-0.15129118 0.14522065 0.04331836 0.12087684 -0.11813481 -0.02402172 -0.017041245 -0.09407118
0.049904946 0.18452315 0.10482517 -0.0789942 -0.12653796 0.40595564 -0.11656339 -0.2675942
0.0151973395 0.32242972 0.28545013 -0.025707457 0.0061422954 -0.3451873 -0.19879334 0.05576398
0.32499418 -0.2299008 -0.5034227 0.024477039 0.23795383 -0.4109084 -0.41775203 -0.08219178
-0.2683205 0.14450192 -0.023208551 0.08498909 0.3054255 0.31454208 0.2989682 -0.14487565
0.02880544 -0.012753274 -0.0223508 0.040895812 0.008372748 -0.035361674 -0.01790861 0.010375355
0.0070507284 0.0100630615 -0.007864551 -0.011041907 0.03275902 0.051078986 0.014669754 -0.0011516549
0.19656004 -0.094298735 -0.13446376 0.09815078 0.09916513 -0.05600382 -0.1897052 -0.2428015
-0.17274989 0.2009212 -0.019310014 -0.06459079 0.11201496 0.090815514 0.084140986 0.027916858
-0.04291932 -0.065445915 -0.0059296107 -0.08401712 0.045904346 0.03812316 0.0017185635 0.09913909
0.10537622 -0.05495326 0.0028905103 0.04628679 -0.032464243 -0.08236787 0.050110407 0.0021037112
0.03660069 0.078853086 -0.115049735 0.055590585 -0.0043106135 -0.06505454 0.16525728 0.0463669
-0.19821319 -0.113120936 0.054124076 0.14436054 -0.16869684 0.1493463 -0.023671325 -0.11311949
0.15309444 0.04251075 -2.4399254e-05 0.06151916 0.06872304 0.05744051 -0.13842157 -0.27753058
-0.14488372 0.21110815 0.010944888 -0.09750288 0.1104397 0.020289691 0.03598478 0.04602371
-0.04200487 -0.018868964 0.11286711 -0.041681763 -0.0059649595 0.066428445 0.014543187 0.017465368
0.043693066 -0.000199256 -0.0058093118 -0.040439934 -0.022061072 -0.06708807 -0.002201221 0.065882266
-0.04861815 0.022384338 0.03410499 -0.0014104601 -0.009150461 -0.022358924 0.028653843 0.03765574
0.018635139 -0.009592203 -0.014886808 -0.014531916 -0.007809791 0.013002332 0.0018006626 0.009665687

gcn1.bias f4 [16]
00000000: 6847 463e f875 1f3e af0e 143e 3bb8 433e
00000010: 62ca 7d3e 5b17 293e 68ce 353e a5a6 543e
00000020: 5a32 163e 749e 2f3e 4648 253e 83e2 183e
00000030: ab16 313e c637 413e 82ba 803e f371 4d3e
0.19363177 0.15572345 0.14458726 0.19113247 0.24784234 0.16512816 0.17754519 0.20766695
0.14667645 0.17150289 0.16140851 0.14930157 0.17293803 0.18868932 0.25142294 0.20063

gcn2.weights f4 [16, 7]
00000000: e419 943f a261 e2bf dd50 953f 0cc6 90bf
00000010: 0eba c63f b687 a43f 7992 b9bf f96d ea3d
00000020: 0998 963f 2e57 b3bf 891c acbf 1e93 683f
00000030: 1cb6 903f f860 7a3f 6712 ccbf 36e9 cabf
00000040: 99cd 7cbf 66a2 8c3f 9be5 cf3f fdae bcbe
00000050: 264c b63f ee5b ccbf 43fe b63f ad8d 9c3f
00000060: 0d52 9bbf 92d7 98bf 6c10 9a3d c752 893f
00000070: 6ab8 98bf cda4 67bf e674 b33f 3848 aa3f
00000080: f0ba b1bf a8af 69bf b197 aabf d9b5 b9bf
00000090: b608 ca3f bbb0 92bf 4ab8 a83f 2a28 9b3f
000000a0: 76e3 bdbf f7c3 abbf 4a34 b9bf a023 8d3f
000000b0: 8925 b9bf 423d 8c3f f526 b9bf d34d 8b3f
000000c0: 71b1 a33f cd9b df3f df6f 9cbf 6d08 a8bf
000000d0: 8ad2 a23f 49c1 babf d070 33bf 3cf2 ac3f
000000e0: 4188 ca3f 790d b3bf 34bf aabf 7822 7e3f
000000f0: f7ec c13f 39d7 7fbf 09ca ae3f d695 93bf
00000100: 7f63 623f 2019 9e3f 5f34 a4bf ff08 923f
00000110: 1888 a8bf 92fb aebf 0b2e a43f f9df 773f
00000120: 95a6 a2bf c0c3 bcbf 9660 aa3f daad 413f
00000130: 03af a7bf b4d7 ba3f 9cc8 993f fd89 94bf
00000140: 2488 98bf 4ed4 b5bf 6424 633f b5e8 8cbf
00000150: 9af7 5c3f 4b76 bfbf 0bcf 903f 94e3 96bf
00000160: ef63 7e3f ea0d b2bf 9977 5a3f 7984 e73e
00000170: e39e aebf bb60 a13f e798 a0bf 3cfd 98bf
00000180: 5b4d 833f 13bc c73f 93bb eebe 313e a5bf
00000190: e312 b53f 451e ad3f 6ef4 c5bf b8b2 92bf
000001a0: 1063 ecbe 0b6e a8bf 540b b7bf 96d5 043f
000001b0: 918d b03f b7b9 743f 4ce5 a8bf 0f8c ea3e
1.1570401 -1.7686045 1.1665303 -1.1310439 1.5525529 1.2853916 -1.4497825 0.11446757
1.1765147 -1.401098 -1.3446208 0.90849483 1.1305575 0.9780421 -1.5943116 -1.585242
-0.9875122 1.098706 1.6241945 -0.36852255 1.4241989 -1.5965555 1.4296345 1.2230736
-1.2134415 -1.1940787 0.075226635 1.0728387 -1.1931279 -0.9048584 1.402005 1.330329
-1.3885174 -0.91283655 -1.3327543 -1.450862 1.5783908 -1.1460184 1.318124 1.2121632
-1.483504 -1.3419179 -1.4469082 1.1026497 -1.446458 1.0956194 -1.4465014 1.0883125
1.2788526 1.7469422 -1.222164 -1.3127571 1.2720501 -1.4590236 -0.70094013 1.3511424
1.5822831 -1.3988487 -1.33396 0.99271345 1.5150441 -0.9993778 1.3655406 -1.1530101
0.8843307 1.2351418 -1.2828482 1.1408995 -1.3166533 -1.3670523 1.2826551 0.9682613
-1.2707087 -1.4747238 1.3310726 0.756559 -1.3100284 1.4597077 1.2014346 -1.1604611
-1.1916547 -1.4205415 0.887274 -1.1008517 0.8631531 -1.4957975 1.1313184 -1.1788201
0.99371237 -1.3910496 0.8533874 0.45218256 -1.3642238 1.2607645 -1.2546662 -1.1952281
1.0257982 1.5604271 -0.46627483 -1.2909604 1.4146389 1.3524863 -1.5465219 -1.1460791
-0.4616933 -1.3158582 -1.4300332 0.51888406 1.3793203 0.9559588 -1.3194976 0.4580998

gcn2.bias f4 [7]
00000000: 82f2 2abe fa5e c3bd c228 a33e 543e 03bc
00000010: 1506 02bf 8756 12be b155 f4be
-0.16694072 -0.095396 0.31867033 -0.008010466 -0.5079053 -0.1429082 -0.47721627
