GCN-main/model1.pth (torch, 93663 bytes, 4 tensors)

gcn1.weights f4 [1433, 16]
-0.08596735 0.08389609 -0.1617181 0.27625772 -0.0031660437 0.1415998 -0.27929762 0.11563624
1.1663902e-06 0.09720896 0.04363934 0.10143613 -0.17161965 2.389275e-06 -0.02536697 0.101848826
-0.19331181 -0.08587579 0.077484466 0.09196547 -0.12738939 0.08288804 0.05532761 -0.04673464
3.5776357e-06 0.013442684 -0.13040505 -0.09948266 0.1827901 -1.4192841e-06 0.20067523 0.0656529
0.27004758 -0.2560385 0.22770506 0.22589836 0.258146 -0.13019809 -0.24750914 -0.27597064
-2.92684e-06 -0.071466066 0.337061 0.53722936 -0.49155605 3.4406276e-06 -0.1289929 -0.29048204
-0.26899338 0.06243962 0.45774946 -0.29978442 -0.019985463 0.24604568 0.5030471 0.027523864
6.554509e-07 0.28418228 -0.2328838 -0.3515455 0.61403894 8.29276e-07 0.3657048 -0.0972532
1.0976118 -0.66308796 0.41745576 1.4441246 -0.9559035 -0.47513744 -1.2041565 -0.5761897
8.902079e-06 1.2698486 -0.73037106 1.1049377 -1.1081268 -2.3403875e-06 0.9877094 -0.85121
0.052345004 0.052977666 -0.013743758 -0.08187404 -0.013429953 -0.11926133 0.08380728 0.047921114
-3.5228568e-06 0.031317107 -0.115986206 -0.100920424 0.116526894 3.0486092e-06 -0.010464742 0.045838
-0.021910783 0.0064759166 -0.13902256 -0.07033228 -0.038532693 0.06577783 0.11080627 -0.009652144
2.217973e-06 -0.13373694 0.082664505 -0.11667067 -0.06289173 1.125116e-06 0.072315365 0.20967512
-0.17149855 -0.124606065 0.06007941 -0.19974998 -0.27546993 0.33819392 0.20935282 -0.09186539
-8.52507e-07 0.08880895 -0.012557434 -0.35476506 0.16816367 1.9027353e-06 0.33934778 0.03313653
0.53661764 0.22754179 -0.2230864 -0.07201677 -0.22705077 -0.3566668 -0.09793486 0.19998896
-6.5454847e-06 0.385238 -0.4641833 -0.21814346 0.09075924 3.1563948e-06 -0.064653434 -0.0054024733
0.09675991 0.02678909 -0.03905937 -0.04294776 0.019639831 -0.05132049 0.031070182 0.023463164
1.4595261e-06 -0.00059360545 -0.022082524 -0.025557308 -0.007995013 -7.56795e-07 -0.08453719 0.025160706
0.10526608 0.09399196 -0.06329494 -0.19904406 -0.077738024 -0.103431515 0.19314349 0.09517698
3.1186655e-06 0.1260334 -0.17800929 -0.26029697 0.22282627 2.5727372e-06 0.018501762 0.054320697
0.044705454 0.049550347 -0.06562667 0.14756638 0.046286095 0.0659694 -0.12898761 0.04925253
2.6854957e-06 0.048318066 0.06467093 0.101324596 -0.085894324 -1.6001438e-06 -0.021216149 0.025917778
0.057411585 0.07247529 0.0009910124 0.27036628 0.06380815 -0.04670205 -0.18161568 0.0030996683
1.4766272e-06 -0.05421662 -0.02266145 0.19731653 -0.0390569 1.1613182e-06 -0.035779525 0.26815584
0.020881511 0.0927704 -0.0032841128 -0.17178597 -0.08707622 0.01748512 0.16450061 0.08992354
3.2557737e-06 0.12798508 -0.17837647 -0.23909554 0.2206733 5.8930937e-08 0.026944833 0.011945101
-0.10523057 -0.016281258 0.038649313 0.023469249 0.058901522 0.09368741 -0.011541934 -0.0012420069
7.357551e-08 -0.019031916 0.06709554 0.04573853 -0.012630068 1.506958e-06 0.005392788 -0.066481985
0.012091232 -0.0023367945 0.00958019 -0.009307462 0.015733851 0.01223024 0.005380935 -0.024510525
-1.6119443e-06 -0.019887846 0.03382698 0.03352734 -0.023308357 2.9285518e-06 -0.0417271 -0.013969229
00000000: a60f b0bd b7d1 ab3d 6e99 25be a771 8d3e
00000010: 667d 4fbb 8aff 103e 1900 8fbe b1d2 ec3d
00000020: dd8c 9c35 7e15 c73d 2abf 323d bfbd cf3d
00000030: 10bd 2fbe 6f57 2036 64ce cfbc 1e96 d03d
00000040: 88f3 45be a5df afbd 2db0 9e3d 6458 bc3d
00000050: 5d72 02be 34c1 a93d 349f 623d d26c 3fbd
00000060: 5017 7036 b43e 5c3c e788 05be 91bd cbbd
00000070: 542d 3b3e 3b7e beb5 cf7d 4d3e 0775 863d
00000080: ad43 8a3e 7a17 83be 842b 693e e651 673e
00000090: b62b 843e a652 05be 0973 7dbe 064c 8dbe
000000a0: ba6a 44b6 cd5c 92bd 4293 ac3e dd87 093f
000000b0: 3cad fbbe 88e5 6636 b716 04be 10ba 94be
000000c0: 80b9 89be b0c0 7f3d 235e ea3e 587d 99be
000000d0: 8eb8 a3bc 66f3 7b3e b2c7 003f ba79 e13c
000000e0: 3ef2 2f35 5780 913e 1779 6ebe c6fd b3be
000000f0: a831 1d3f 6a9b 5e35 a93d bb3e b02c c7bd
00000100: 8b7e 8c3f 22c0 29bf c3bc d53e 13d9 b83f
00000110: 17b6 74bf 3745 f3be cd21 9abf 2b81 13bf
00000120: 235a 1537 668a a23f 99f9 3abf 996e 8d3f
00000130: 19d7 8dbf 8d0f 1db6 86da 7c3f e6e8 59bf
00000140: b767 563d 1cff 583d 802d 61bc 94ad a7bd
00000150: 4e09 5cbc 493f f4bd 27a3 ab3d ee48 443d
00000160: 386a 6cb6 5e46 003d 2d8a edbd 5eaf cebd
00000170: a7a5 ee3d b596 4c36 4f74 2bbc a0c0 3b3d
00000180: 3e7e b3bc ed33 d43b ee5b 0ebe 5f0a 90bd
00000190: 75d4 1dbd 87b6 863d 66ee e23d 0724 1ebc
000001a0: 7cd8 1436 56f2 08be 024c a93d 08f1 eebd
000001b0: 61cd 80bd b102 9735 141a 943d 13b5 563e
000001c0: 519d 2fbe 7731 ffbd d415 763d 428b 4cbe
000001d0: 650a 8dbe c127 ad3e 9660 563e ec23 bcbd
000001e0: d6d7 64b5 77e1 b53d b2bd 4dbc c4a3 b5be
000001f0: 1933 2c3e 7d61 ff35 febe ad3e 2cba 073d
00000200: c65f 093f b700 693e c370 64be 877d 93bd
00000210: ff7f 68be 089d b6be 1292 c8bd e8c9 4c3e
00000220: 49a1 dbb6 ea3d c53e 6fa9 edbe 0061 5fbe
00000230: fbdf b93d 73d2 5336 0569 84bd 3b07 b1bb
00000240: 0f2a c63d cb74 db3c b8fc 1fbd fee9 2fbd
00000250: b6e3 a03c 6f35 52bd e586 fe3c d235 c03c
00000260: efe4 c335 309c 1bba 69e6 b4bc 8f5d d1bc
00000270: 84fd 02bc 8e26 4bb5 d621 adbd d31d ce3c
00000280: be95 d73d db7e c03d c7a0 81bd 35d2 4bbe
00000290: 1d35 9fbd e7d3 d3bd 68c7 453e 26ec c23d
000002a0: 444a 5136 e60e 013e 1148 36be a545 85be
000002b0: 922c 643e 4aa7 2c36 0291 973c 617f 5e3d
000002c0: 111d 373d 4ef5 4a3d 4767 86bd a41b 173e
000002d0: 7d96 3d3d f71a 873d 5415 04be 05bd 493d
000002e0: 7738 3436 2ae9 453d 3172 843d 4583 cf3d
000002f0: 5de9 afbd 86c4 d6b5 7dcd adbc 8551 d43c
00000300: 6928 6b3d ed6d 943d dce4 813a 736d 8a3e
00000310: d9ad 823d a64a 3fbd 76f9 39be ce23 4b3b
00000320: 8630 c635 3f12 5ebd 81a4 b9bc 580d 4a3e
00000330: 21fa 1fbd 97de 9b35 8d8d 12bd b94b 893e
00000340: b40f ab3c 68fe bd3d 453a 57bb a9e8 2fbe
00000350: 0455 b2bd f43c 8f3c d972 283e d529 b83d
00000360: c47d 5a36 850e 033e 52a8 36be 76d5 74be
00000370: 2ef8 613e 401b 7d33 69bb dc3c 63b5 433c
00000380: 2083 d7bd 4660 85bc be4e 1e3d 9542 c03c
00000390: b942 713d 2fdf bf3d 611a 3dbc d6ca a2ba
000003a0: 9000 9e33 d2e8 9bbc 6369 893d 5358 3b3d
000003b0: 58ee 4ebc af42 ca35 fcb5 b03b b527 88bd
000003c0: 4e1a 463c e824 19bb 3bf6 1c3c 537e 18bc
000003d0: 47e4 803c 5861 483c 8e52 b03b 4cca c8bc
000003e0: fc59 d8b5 d6eb a2bc 298e 0a3d f753 093d
000003f0: 2bf1 bebc 2388 4436 09ea 2abd 31df 64bc

gcn1.bias f4 [16]
0.18504967 0.17436802 0.15442418 0.1779636 0.21140449 0.1507573 0.20168115 0.1708558
-0.053874332 0.22772354 0.19052413 0.21867938 0.131978 -0.03391636 0.14273186 0.21761629
00000000: a97d 3d3e 888d 323e 5f21 1e3e 173c 363e
00000010: 6b7a 583e 1f60 1a3e 8185 4e3e d3f4 2e3e
00000020: 55ab 5cbd 5c30 693e c218 433e 7ded 5f3e
00000030: 3e25 073e e2eb 0abd 4d28 123e ced6 5e3e

gcn2.weights f4 [16, 7]
1.7206491 -1.4125577 1.8528972 -1.1239071 -1.7095497 -1.1850342 1.4063051 -1.6931725
-1.5988547 1.7870561 1.4441481 -1.4822314 -1.0249963 -1.5871941 0.95298815 -1.8298467
-1.656766 -1.5525734 1.8537095 1.2802751 1.6643016 2.0355246 -1.599821 -1.9013443
1.8568587 -1.680382 1.4706608 -2.008857 -1.9315046 -1.9228029 -0.033222627 1.4194939
-1.4955232 0.07843832 1.8057971 -1.6326272 1.8362082 -1.63691 1.7322038 0.970926
-2.0310042 -1.7750562 -2.1295826 1.4995264 1.6114537 -1.5609006 1.7701565 -0.819283
1.2711122 -1.2591939 -1.4464507 1.733321 1.63418 -0.71008074 -1.3743656 -1.4511178
7.49389e-05 4.745692e-06 -0.00010288855 3.61157e-05 -2.1714446e-05 -5.462362e-05 -4.049994e-05 1.7213951
-2.0388947 1.2549355 0.5540254 1.4489181 -1.7388555 -1.8214478 -1.6570677 1.8475885
-1.5631918 1.6692237 -1.0115684 -1.515521 1.9098871 1.5600861 -1.89015 -1.5754899
1.5530603 -1.9671596 1.2810023 1.803199 -1.6504978 -1.4287356 1.5838442 -1.2847508
1.7911289 0.6413775 -1.4632533 3.5908233e-05 -5.8960788e-05 1.3646437e-05 -2.2273587e-05 7.476592e-07
1.9059693e-06 -6.966063e-07 1.2002221 1.5413287 -1.6897992 -1.623516 1.7904321 0.8499075
-1.8023584 -1.9329383 1.5890131 1.4801385 1.4013836 -1.723148 0.65409344 -1.9385098
00000000: 3b3e dc3f b1ce b4bf bc2b ed3f 30dc 8fbf
00000010: 86d2 dabf 33af 97bf ce01 b43f e0b9 d8bf
00000020: 45a7 ccbf 41be e43f d8d9 b83f c2b9 bdbf
00000030: 1433 83bf 2d29 cbbf 08f7 733f 6b38 eabf
00000040: e910 d4bf baba c6bf 5a46 ed3f 0ee0 a33f
00000050: d607 d53f 0946 0240 efc6 ccbf 405f f3bf
00000060: 8cad ed3f c216 d7bf 9d3e bc3f 1d91 00c0
00000070: 8b3b f7bf 681e f6bf 7314 08bd fab1 b53f
00000080: 4e6d bfbf 45a4 a03d 5c24 e73f eef9 d0bf
00000090: df08 eb3f 4486 d1bf dbb8 dd3f 9b8e 783f
000000a0: f9fb 01c0 0b35 e3bf 154b 08c0 7bf0 bf3f
000000b0: 1d44 ce3f 97cb c7bf 7d94 e23f 88bc 51bf
000000c0: ceb3 a23f 442d a1bf 4c25 b9bf 76dd dd3f
000000d0: cf2c d13f dac7 35bf 36eb afbf 3abe b9bf
000000e0: 8428 9d38 2f3d 9f36 dfc5 d7b8 f07a 1738
000000f0: 6b27 b6b7 aa1b 65b8 7bde 29b8 ad56 dc3f
00000100: 407d 02c0 baa1 a03f 9cd4 0d3f 2676 b93f
00000110: d192 debf 3425 e9bf cb1a d4bf c87d ec3f
00000120: ab16 c8bf 1fa9 d53f 137b 81bf 98fc c1bf
00000130: 2e77 f43f e7b0 c73f 6ff0 f1bf a7a9 c9bf
00000140: aeca c63f e3cb fbbf e2f7 a33f 3acf e63f
00000150: 8343 d3bf cfe0 b6bf 68bb ca3f b772 a4bf
00000160: b643 e53f 5131 243f e24b bbbf 2c9c 1638
00000170: aa4c 77b8 00f3 6437 2ad8 bab7 c0b2 4835
00000180: 9bd0 ff35 6cfe 3ab5 e1a0 993f 424a c53f
00000190: 574b d8bf 5fcf cfbf e12c e53f 8a93 593f
000001a0: aeb3 e6bf 866a f7bf c864 cb3f 2e75 bd3f
000001b0: 8a60 b33f 1d90 dcbf ab72 273f 1721 f8bf

gcn2.bias f4 [7]
0.19336538 0.17825097 0.22679996 -0.7573815 -0.08685938 0.073506154 0.23474865
00000000: 9301 463e 6c87 363e 403e 683e c1e3 41bf
00000010: 55e3 b1bd 658a 963d f361 703e
